src/hw5/DeepCNN.pt (torch, 121327 bytes, 8 tensors)

weight f4 [8, 3, 3, 3]
0.404754 0.011027621 -0.039409913 0.49584883 0.011700313 0.22992793 0.23456222 0.32961357
0.1406343 -0.07803913 -0.198829 -0.3064603 0.09034944 -0.25781226 -0.24280873 -0.09698556
-0.08517862 -0.20182967 0.22559352 -0.07284196 -0.2668041 -0.017864702 -0.13517974 -0.23089767
-0.0364293 -0.0081515955 0.0025011732 0.22847416 -0.20812276 0.07013043 0.17095493 0.19910596
0.030221993 -0.07831238 -0.20109442 -0.21946153 0.21509139 -0.14944597 -0.08460649 -0.035147488
0.12573534 -0.27785495 0.1798986 -0.09070044 -0.32047683 0.1613184 -0.18767583 -0.06885536
0.037114106 -0.025436157 -0.31108284 -0.0013920714 0.08663041 -0.1794755 0.45816848 0.5007041
0.11668027 -0.26947254 0.37638873 0.04319988 -0.68156886 0.112652615 -0.16327275 0.32398003
0.11343155 -0.012606021 -0.25594106 0.15793088 -0.2774649 -0.70419246 0.06074269 -0.35298964
0.27003884 0.2244559 0.049582098 -0.048588842 0.33296284 0.048931178 -0.47874364 0.29905248
-0.2606635 -0.27721834 -0.18018831 -0.18450953 0.047832444 -0.27802208 -0.3411394 0.27268636
0.066167474 0.17022803 -0.074022554 -0.32916754 -0.11214236 -0.03991333 -0.29879272 -0.26955575
0.104560785 0.058743242 -0.08884059 0.06407354 0.27404916 0.09598417 0.2661875 0.1854303
-0.027087128 0.051159356 0.41060007 0.21336932 0.031385344 -0.052524943 -0.117389135 0.25371775
0.374494 -0.115369156 0.107925296 0.39969686 0.18199955 -0.008009016 -0.252542 -0.32366607
-0.07541178 0.15863396 0.16506392 -0.14234447 0.26937407 -0.12843283 -0.26630145 -0.12596773
-0.064062506 0.21593846 -0.0019948443 -0.013336877 0.121861294 0.26142964 0.05910212 0.026390783
0.09919678 0.28507248 -0.35248908 -0.29564908 0.11333914 -0.09334697 -0.15080467 0.32384926
-0.012888848 -0.061449572 0.28873777 -0.09700177 0.008005972 0.33168826 -0.05128765 0.1996112
0.24784337 -0.2601797 -0.3451297 -0.023178283 -0.39787245 -0.28619972 0.2639003 -0.14329946
-0.19444416 0.29775754 0.10000052 0.12926073 -0.1337264 0.020679172 -0.11057667 -0.12567368
-0.17524564 -0.13516666 -0.12423008 0.27617165 0.18605891 0.13988131 0.3402197 0.30717683
0.19033636 0.16291218 -0.011307925 0.23626757 -0.11144258 -0.11457042 -0.30546767 -0.12457904
-0.23206022 0.024701567 -0.19067568 -0.20453387 -0.08705424 -0.22544229 0.0024013186 -0.10959299
-0.18821605 -0.07467436 0.0886015 -0.30761775 -0.08413423 -0.04477794 0.19111732 -0.08713803
0.11424209 -0.09543259 0.21543097 -0.00024967658 0.09272676 -0.026838021 -0.05405166 0.11952938
0.1941264 0.259262 0.19431053 0.21944669 0.0012051183 0.21183358 0.22665536 0.20625721
00000000: eb3b cf3e 32ad 343c 4a6c 21bd e6df fd3e
00000010: abb2 3f3c 3a72 6b3e 1431 703e 1cc3 a83e
00000020: 7002 103e fbd2 9fbd d499 4bbe 5de8 9cbe
00000030: 2109 b93d f8ff 83be daa2 78be 5ea0 c6bd
00000040: 2172 aebd 70ac 4ebe fd01 673e 2a2e 95bd
00000050: 8c9a 88be ff58 92bc 8f6c 0abe 7070 6cbe
00000060: e436 15bd 458e 05bc b9ea 233b 21f5 693e
00000070: 221e 55be 8ba0 8f3d cf0e 2f3e 6fe2 4b3e
00000080: 1d94 f73c 3e62 a0bd b2eb 4dbe 86ba 60be
00000090: eb40 5c3e 5d08 19be 2b46 adbd d0f6 0fbd
000000a0: c4c0 003e 0143 8ebe 5737 383e 27c1 b9bd
000000b0: 8a15 a4be a730 253e 182e 40be 0a04 8dbd
000000c0: f604 183d 7d5f d0bc 4046 9fbe 2a76 b6ba
000000d0: 496b b13d 6dc8 37be 0f95 ea3e 252e 003f
000000e0: 11f6 ee3d 4ef8 89be 06b6 c03e 5bf2 303d
000000f0: 4c7b 2ebf 6ab6 e63d f930 27be b6e0 a53e
00000100: cd4e e83d 7c89 4ebc b50a 83be a2b8 213e
00000110: e10f 8ebe f545 34bf 54cd 783d 0fbb b4be
00000120: 8842 8a3e c4d7 653e 9916 4b3d 1805 47bd
00000130: 1b7a aa3e 0f6c 483d e31d f5be 681d 993e
00000140: b075 85be 90ef 8dbe 4983 38be 11f0 3cbe
00000150: f4eb 433d e958 8ebe d3a9 aebe 8c9d 8b3e
00000160: d082 873d 4250 2e3e 2399 97bd a688 a8be
00000170: e5aa e5bd 297c 23bd 5cfb 98be 3603 8abe
00000180: f723 d63d c19c 703d 0ef2 b5bd fd38 833d
00000190: 2c50 8c3e 5993 c43d ba49 883e 71e1 3d3e
000001a0: d3e5 ddbc 798c 513d 2c3a d23e 7d7d 5a3e
000001b0: eb8d 003d 6524 57bd b769 f0bd 4be7 813e
000001c0: adbd bf3e aa46 ecbd f007 dd3d 11a5 cc3e
000001d0: 175e 3a3e 3f38 03bc 2f4d 81be 8fb7 a5be
000001e0: 7e71 9abd f170 223e 8406 293e c0c2 11be
000001f0: 66eb 893e e583 03be aa58 88be affd 00be
00000200: 3433 83bd f91e 5d3e efbb 02bb eb82 5abc
00000210: 6a92 f93d 1bda 853e 1115 723d 7c31 d83c
00000220: ae27 cb3d 05f5 913e 7379 b4be 515f 97be
00000230: 5a1e e83d b22c bfbd 8a6c 1abe 92cf a53e
00000240: bf2b 53bc 8cb2 7bbd 70d5 933e dda8 c6bd
00000250: 7b2b 033c 0bd3 a93e 0013 52bd e166 4c3e
00000260: a7ca 7d3e 4636 85be d7b4 b0be 62e0 bdbc
00000270: f0b5 cbbe c588 92be f11d 873e 18bd 12be
00000280: 5f1c 47be ad73 983e 13cd cc3d ed5c 043e
00000290: 93ef 08be 5e67 a93c 0576 e2bd 9ab0 00be
000002a0: 9873 33be 2169 0abe 576c febd 5f66 8d3e
000002b0: 3a86 3e3e 0c3d 0f3e 4731 ae3e 4846 9d3e
000002c0: 89e7 423e 73d2 263e e044 39bc 20f0 713e
000002d0: 023c e4bd e5a3 eabd 4266 9cbe 4c23 ffbd
000002e0: 32a1 6dbe f15a ca3c 7c40 43be 5471 51be
000002f0: 7e49 b2bd 58da 66be 715f 1d3b 4a72 e0bd
00000300: b5bb 40be dfee 98bd b474 b53d 1380 9dbe
00000310: 914e acbd 1369 37bd 42b4 433e 6c75 b2bd
00000320: c2f7 e93d 2972 c3bd f099 5c3e 06e7 82b9
00000330: 87e7 bd3d 69db dbbc 4665 5dbd d2cb f43d
00000340: 12c9 463e fdbd 843e 57f9 463e a2b6 603e
00000350: 0ff5 9d3a e7ea 583e 5818 683e 1735 533e

bias f4 [8]
0.09675017 -0.23909608 -0.036763832 0.2603958 0.2606936 0.18082312 0.029658781 0.05188384
00000000: f424 c63d 9ad5 74be ac95 16bd 9952 853e
00000010: a279 853e b229 393e f9f6 f23c 2684 543d

weight f4 [16, 8, 3, 3]
0.12765299 -0.029986365 0.0009089363 0.117585085 0.16905048 0.20244636 -0.037888393 -0.020887485
0.23432913 -0.04681405 -0.073980235 0.034578152 -0.10664271 0.06529929 0.10177849 -0.119588576
-0.11047404 0.02354248 -0.10896262 -0.17028847 -0.23485094 -0.057566732 -0.18699491 -0.19625184
-0.0943587 0.084559456 0.025231268 0.007879807 0.055466417 0.11939474 0.010178155 -0.033740923
0.14844327 0.028383985 -0.017225107 0.048087426 0.25886613 0.20725797 -0.089483365 0.23691581
0.13946763 -0.090270676 0.036446944 -0.100554876 0.028369311 -0.1174765 -0.07765973 -0.057844345
-0.03159484 -0.047738824 -0.18597995 -0.08508742 -0.21635105 -0.12859663 -0.107368745 -0.055704914
-0.055495005 0.023720333 0.08083393 0.031563263 -0.03383276 -0.04898994 -0.08145233 0.110504486
-0.042064644 -0.03865524 0.015670523 -0.096249744 -0.010438249 0.07358158 -0.018881336 -0.14685088
-0.04406358 0.0054335613 -0.07233026 -0.061786834 -0.012480158 -0.03636608 0.03397535 -0.024562392
-0.0140983565 -0.04048578 -0.104951724 0.10288511 0.024236154 0.109252244 -0.01770756 -0.030710222
-0.10747608 -0.04248404 0.078878984 -0.12237676 -0.04146387 0.060450178 0.052089952 0.030995155
-0.032327395 -0.016111089 -0.033797543 -0.037433006 0.05715456 -0.035504177 -0.062986866 0.032142557
-0.08103879 -0.02271837 0.06374841 0.047701012 0.10990269 -0.08050576 -0.0018360218 -0.02335727
-0.06113383 -0.064450026 0.04276806 0.020301668 -0.056920916 -0.07734744 -0.0866234 0.13504775
-0.013703303 -0.015745953 -0.0265305 -0.051893756 -0.097571716 -0.057354163 0.08260587 0.03887065
-0.028188078 -0.03302982 0.08885333 0.09842765 0.12736067 0.049262222 0.07312408 -0.010182945
-0.07288656 -0.11863015 0.07240707 -0.019724963 0.04602273 0.009174459 -0.10883484 -0.058097184
0.04020474 -0.05559539 -0.16069925 0.12499651 0.034450505 -0.06939873 0.17689206 0.10576057
-0.018092724 0.2196552 0.115201466 0.017453134 0.060057268 -0.081477396 0.05512929 0.012287759
-0.08477751 0.026514662 0.017901015 0.031466633 0.09474421 -0.04309062 -0.021990037 0.1450501
0.045026496 -0.08745046 0.12792003 0.12615144 0.19531728 0.103655025 0.24345282 0.20991969
0.036713786 0.1462875 0.09030661 -0.025716465 -0.07450532 -0.1802081 -0.101755604 -0.018617688
0.12934658 0.013255761 0.13570042 0.22830345 0.19386132 -0.15752879 0.05819105 0.10602975
-0.21527852 0.10544289 -0.016054079 -0.15151587 -0.12920827 0.116993606 -0.005761622 0.08352949
-0.014746431 0.034227632 -0.089355774 -0.1569587 0.01839754 -0.044012252 -0.06013619 -0.11984041
-0.038225483 0.00046454114 0.033986434 -0.085924976 0.06987269 0.037570372 0.121712245 0.11783803
-0.1559573 0.0673674 -0.14635628 0.04390748 -0.061000258 0.007710836 -0.053448305 0.010259352
-0.08602886 -0.087546244 0.0364812 0.05726606 0.09261359 -0.057122007 0.066281416 0.037147008
-0.118203245 -0.13779028 0.15236631 0.037388027 0.104382135 -0.1515956 0.09355766 0.016299173
-0.0801635 0.024204226 -0.104977995 -0.02331785 -0.0011597594 -0.042494677 0.03430181 -0.016718477
0.15452981 0.14408308 0.13158396 0.1236161 -0.1852767 0.024373751 0.093680754 -0.076224744
00000000: 77b7 023e f7a5 f5bc af45 6e3a 73d0 f03d
00000010: 921b 2d3e 194e 4f3e dc30 1bbd 3b1c abbc
00000020: faf3 6f3e 17c0 3fbd f382 97bd d2a1 0d3d
00000030: 7e67 dabd a2bb 853d 3e71 d03d dbea f4bd
00000040: 3740 e2bd 29dc c03c cb27 dfbd 1a60 2ebe
00000050: c47c 70be 18cb 6bbd 987b 3fbe 3ef6 48be
00000060: 223f c1bd 822d ad3d ceb1 ce3c 4e1a 013c
00000070: c130 633d 3b85 f43d 47c2 263c ec33 0abd
00000080: 8301 183e 8885 e83c ab1b 8dbc 52f7 443d
00000090: 1a8a 843e 6f3b 543e 0e43 b7bd 0f9a 723e
000000a0: 9ad0 0e3e d5df b8bd 6449 153d b7ef cdbd
000000b0: c266 e83c 8597 f0bd 110c 9fbd 31ee 6cbd
000000c0: 9769 01bd c989 43bd 8771 3ebe 5042 aebd
000000d0: 218b 5dbe d6ae 03be 25e4 dbbd d62a 64bd
000000e0: bb4e 63bd 2551 c23c 428c a53d 7b48 013d
000000f0: 3894 0abd ada9 48bd 7bd0 a6bd 2d50 e23d
00000100: fa4b 2cbd f554 1ebd 785f 803c 961e c5bd
00000110: 3105 2bbc f0b1 963d 08ad 9abc 1460 16be
00000120: 037c 34bd 040c b23b e321 94bd 3114 7dbd
00000130: 9479 4cbc 99f4 14bd bd29 0b3d 1237 c9bc
00000140: cbfc 66bc 6bd4 25bd eef0 d6bd 6eb5 d23d
00000150: e68a c63c a4bf df3d 720f 91bc 0194 fbbc
00000160: 6b1c dcbd bf03 2ebd 4e8b a13d aba0 fabd
00000170: 05d6 29bd 9b9a 773d 465c 553d 8de9 fd3c
00000180: bb69 04bd 67fb 83bc 4b6f 0abd 5a53 19bd
00000190: e61a 6a3d d46c 11bd 42ff 80bd eaa7 033d
000001a0: aaf7 a5bd e01b babc 878e 823d 2362 433d
000001b0: a914 e13d 34e0 a4bd aba6 f0ba bf57 bfbc
000001c0: 7867 7abd 60fe 83bd 902d 2f3d af4f a63c
000001d0: e825 69bd 5668 9ebd 9c67 b1bd f549 0a3e
000001e0: d283 60bc a8fd 80bc 7e56 d9bc 8c8e 54bd
000001f0: aed3 c7bd 33ec 6abd 442d a93d d536 1f3d
00000200: afea e6bc 474a 07bd bcf8 b53d 7094 c93d
00000210: d66a 023e 2fc7 493d 14c2 953d 5ed6 26bc
00000220: 8c45 95bd 5df4 f2bd 284a 943d 3f96 a1bc
00000230: 5582 3c3d 7850 163c cde4 debd 50f7 6dbd
00000240: baad 243d feb7 63bd 588e 24be 2cfe ff3d
00000250: f91b 0d3d ec20 8ebd 3123 353e ff98 d83d
00000260: 3137 94bc 4bed 603e bfee eb3d e0f9 8e3c
00000270: 9cfe 753d 9fdd a6bd 40cf 613d 9952 493c
00000280: d59f adbd 4735 d93c 26a5 923c 28e3 003d
00000290: 4109 c23d ca7f 30bd 7324 b4bc 0388 143e
000002a0: b46d 383d 3a19 b3bd 78fd 023e d82d 013e
000002b0: 4101 483e 1649 d43d b24b 793e 30f5 563e
000002c0: 3261 163d 64cc 153e acf2 b83d 56ab d2bc
000002d0: 3f96 98bd 7988 38be 3e65 d0bd 1f84 98bc
000002e0: 6e73 043e b12e 593c 0df5 0a3e 61c8 693e
000002f0: 9583 463e 3a4f 21be bd59 6e3d 2026 d93d
00000300: f971 5cbe 71f2 d73d d883 83bc fa26 1bbe
00000310: 2c4f 04be 589a ef3d fdcb bcbb 8211 ab3d
00000320: 049b 71bc 4632 0c3d 2900 b7bd c8b9 20be
00000330: 70b6 963c 3146 34bd 5e51 76bd e46e f5bd
00000340: 5392 1cbd a88d f339 5c35 0b3d 6ff9 afbd
00000350: 6a19 8f3d 64e3 193d 4544 f93d 1155 f13d
00000360: 45b3 1fbe ebf7 893d 6cde 15be 54d8 333d
00000370: 68db 79bd 2eab fc3b 9cec 5abd d716 283c
00000380: e62f b0bd 724b b3bd 506d 153d d18f 6a3d
00000390: 32ac bd3d c4f8 69bd 8dbe 873d 7627 183d
000003a0: 8b14 f2bd e518 0dbe ea05 1c3e 3024 193d
000003b0: 4dc6 d53d e13b 1bbe 299b bf3d d885 853c
000003c0: c32c a4bd f147 c63c b4fe d6bd 1305 bfbc
000003d0: 1103 98ba e60e 2ebd 0e80 0c3d 30f5 88bc
000003e0: 103d 1e3e 848a 133e f2bd 063e 702a fd3d
000003f0: 2db9 3dbe 76ab c73c b2db bf3d b81b 9cbd

bias f4 [16]
0.45624357 0.032128334 -0.16610213 0.0156097105 0.37346902 -0.24435103 -0.0136604505 0.35622904
-0.0702361 -0.08181281 -0.11300505 0.43480715 0.21950531 0.14702049 -0.30410904 0.0029882595
00000000: c298 e93e 0099 033d ad16 2abe dfbf 7f3c
00000010: 5537 bf3e 2837 7abe 15d0 5fbc a763 b63e
00000020: f2d7 8fbd 798d a7bd 316f e7bd 0b9f de3e
00000030: 00c6 603e 8a8c 163e 2eb4 9bbe add6 433b

weight f4 [32, 16, 3, 3]
-0.02969937 0.08188639 -0.07791993 0.022789339 -0.08863734 -0.054845836 -0.033150084 -0.005346685
-0.025949934 -0.039419588 -0.038102478 -0.05045956 -0.05825815 -0.05144073 0.08232738 -0.04028633
-0.06976537 0.057793718 0.036389325 0.058389965 -0.06910303 -0.077921 -0.05513768 -0.024271747
0.01863211 0.06279356 0.090381116 -0.076654345 0.030912578 -0.057535827 0.036568757 0.037307374
0.023148425 0.063422985 0.020759756 0.084197156 0.024411617 0.08086077 0.031768385 -0.031189641
0.06494113 0.021106072 0.086445525 -0.004578063 0.09173159 -0.06462971 0.042864442 -0.066405356
0.04666753 0.011265832 0.040445466 -0.074322 -0.085531235 0.04156262 -0.03541984 0.038279295
-0.050260577 -0.024458002 0.005680655 0.052093122 0.054159082 -0.0011831317 -0.01713778 -0.0016532536
0.04878954 -0.062437836 -0.033573423 -0.08570232 0.0065089515 -0.026015414 0.03172086 0.05218569
-0.08079001 -0.046506155 -0.0050817686 -0.010637821 -0.02673803 -0.046986826 -0.04611352 -0.007356567
0.06839334 -0.024269132 0.06457021 -0.07216966 0.0023655791 -0.060806654 -0.079223976 0.036771994
-0.010822565 0.089488134 0.079138525 -0.07664017 0.0050995476 -0.0098658595 -0.045541953 -0.055339146
-0.04095993 0.030773144 0.013043536 0.06277751 0.007252966 0.05902332 0.014792992 -0.023470135
-0.0027534305 -0.09026645 -0.015329419 -0.034486618 -0.024612905 -0.03978948 -0.029131463 -0.039208665
0.010125768 -0.00290985 0.006166574 0.09455101 0.06799534 0.046092987 -0.008067579 0.04090509
-0.048466884 0.076255776 0.10033386 -0.0024197758 0.08382687 0.09790848 0.0011805425 -0.032989927
0.0072570723 0.03407854 -0.064749114 0.009434943 -0.02282753 0.060719736 0.006705057 0.053322334
0.07129614 -0.031641275 0.015560428 -0.010614446 -0.04317599 -0.046513554 -0.0005573855 0.019707887
0.01729636 -0.00030706252 0.029304208 0.05741456 0.010694019 -0.013104795 -0.08731376 -0.08328943
-0.10925121 0.053822216 -0.07454754 -0.061769616 0.05003488 0.044001773 -0.08361756 0.04382572
-0.022457123 0.012444302 -0.054909136 -0.022207215 -0.0033773475 0.034517255 0.026694033 -0.06907168
-0.12232277 -0.0646035 -0.023508526 -0.005462082 -0.11919215 -0.04938909 -0.044458807 -0.07250938
0.029305305 -0.084761165 -0.1351481 -0.099062055 0.034902632 -0.03346622 0.046976876 0.10650442
0.027887512 0.0052857534 0.09014816 0.07055992 0.06725765 0.015233398 0.012616295 -0.04502085
0.027290016 0.09151991 0.023085926 -0.07582326 0.036300756 0.066894114 0.045743093 -0.014680978
-0.00089940825 -0.008557747 -0.053270385 -0.0314545 0.045347616 -0.014145487 0.057221025 0.0057408107
0.04134365 0.06693961 0.014053823 0.12122232 0.12640499 -0.0061974963 0.10652381 0.11410518
-0.0211086 0.0005625041 0.07182331 0.015576928 0.040753696 -0.027194839 0.14439021 0.08752176
0.08394135 0.012355024 -0.05702173 -0.11940764 -0.04442581 -0.058249578 -0.018365195 -0.038534604
-0.11385705 -0.112223715 0.062427096 0.027535368 0.030245282 0.040551614 0.043156978 -0.06239078
0.016780317 0.022671176 -0.068550915 0.062223595 0.030478388 0.09539466 -0.040727485 0.098869875
-0.02190644 0.05926265 0.061522733 -0.011094708 -0.09897587 -0.055953346 -0.09993461 -0.0419763
00000000: 184c f3bc 0db4 a73d 7c94 9fbd b5b0 ba3c
00000010: 7e87 b5bd 07a6 60bd 62c8 07bd 3f33 afbb
00000020: f594 d4bc 6f76 21bd 5811 1cbd afae 4ebd
00000030: 19a0 6ebd 84b3 52bd 429b a83d 4703 25bd
00000040: 25e1 8ebd 1bb9 6c3d f90c 153d 512a 6f3d
00000050: e485 8dbd 0c95 9fbd 0cd8 61bd 8bd5 c6bc
00000060: 5ea2 983c e999 803d bc19 b93d f4fc 9cbd
00000070: 603c fd3c b0aa 6bbd 1fc9 153d 9ecf 183d
00000080: c4a1 bd3c e9e3 813d 5d10 aa3c 8f6f ac3d
00000090: dffa c73c 559a a53d 911f 023d 6b81 ffbc
000000a0: dbff 843d a4e6 ac3c 5a0a b13d 9303 96bb
000000b0: c6dd bb3d 955c 84bd a092 2f3d 88ff 87bd
000000c0: 7426 3f3d 5394 383c 25aa 253d 2236 98bd
000000d0: 002b afbd 913d 2a3d 6514 11bd c0ca 1c3d
000000e0: 09de 4dbd 265c c8bc ca24 ba3b 995f 553d
000000f0: ead5 5d3d 5013 9bba 8864 8cbc fcb1 d8ba
00000100: 8ad7 473d d1be 7fbd 4984 09bd b384 afbd
00000110: 0b49 d53b 471e d5bc bced 013d a9c0 553d
00000120: 3c75 a5bd 3d7d 3ebd f784 a6bb 414a 2ebc
00000130: b709 dbbc 4275 40bd 88e1 3cbd 5b0f f1bb
00000140: cf11 8c3d 0fd0 c6bc 633d 843d b0cd 93bd
00000150: d507 1b3b 6610 79bd 2e40 a2bd 3b9e 163d
00000160: 2151 31bc 8e45 b73d 6113 a23d 85f5 9cbd
00000170: 1b1a a73b 6aa4 21bc 338a 3abd 4dab 62bd
00000180: 99c5 27bd f617 fc3c 8eb4 553c 7f91 803d
00000190: 4aaa ed3b 70c2 713d 4e5e 723c 7144 c0bc
000001a0: e672 34bb 9edd b8bd 3e28 7bbc d741 0dbd
000001b0: 01a1 c9bc 4bfa 22bd 1ba5 eebc 4499 20bd
000001c0: 8de6 253c 2fb3 3ebb f910 ca3b f6a3 c13d
000001d0: 2441 8b3d 00cc 3c3d e12d 04bc 188c 273d
000001e0: 3685 46bd fd2b 9c3d d77b cd3d 1a95 1ebb
000001f0: 6cad ab3d 3e84 c83d 6fbc 9a3a 7220 07bd
00000200: bccc ed3b f095 0b3d 2f9b 84bd 0595 1a3c
00000210: cd00 bbbc 42b5 783d 18b6 db3b 8568 5a3d
00000220: b603 923d 489a 01bd 2af1 7e3c 37e8 2dbc
00000230: 4fd9 30bd ff84 3ebd 821d 12ba 6f72 a13c
00000240: 19b1 8d3c 3cfd a0b9 610f f03c 882b 6b3d
00000250: f735 2f3c 7eb5 56bc 8ed1 b2bd a693 aabd
00000260: 19bf dfbd af74 5c3d 61ac 98bd 2302 7dbd
00000270: 60f1 4c3d 343b 343d af3f abbd 9982 333d
00000280: 00f8 b7bc 30e3 4b3c 67e8 60bd e8eb b5bc
00000290: 7d56 5dbb f761 0d3d 72ad da3c 7475 8dbd
000002a0: 5c84 fabd d74e 84bd f494 c0bc 44fb b2bb
000002b0: 041b f4bd 374c 4abd 701a 36bd cc7f 94bd
000002c0: ae11 f03c 4397 adbd 4364 0abe 0ce1 cabd
000002d0: 10f6 0e3d e013 09bd d36a 403d fd1e da3d
000002e0: 5a74 e43c 1d34 ad3b 999f b83d b881 903d
000002f0: 61be 893d 8195 793c 94b4 4e3c c867 38bd
00000300: 508f df3c ca6e bb3d b21e bd3c 3a49 9bbd
00000310: 1ab0 143d c8ff 883d 1c5d 3b3d 7c88 70bc
00000320: 44c6 6bba cb35 0cbc 0c32 5abd 6fd6 00bd
00000330: 6cbe 393d 79c2 67bc 9860 6a3d 691d bc3b
00000340: f657 293d a217 893d 0242 663c 6843 f83d
00000350: 4f70 013e 5e14 cbbb 2829 da3d faaf e93d
00000360: f1eb acbc 0375 133a 1918 933d 5f36 7f3c
00000370: 59ed 263d b6c7 debc 07db 133e 9c3e b33d
00000380: 71e9 ab3d ba6c 4a3c 9e8f 69bd fe8b f4bd
00000390: d7f7 35bd 1c97 6ebd 9b72 96bc 76d6 1dbd
000003a0: e32d e9bd 8cd5 e5bd 8eb3 7f3d da91 e13c
000003b0: f4c4 f73c 7319 263d 5fc5 303d 798d 7fbd
000003c0: e076 893c e7b8 b93c 6c64 8cbd 2bde 7e3d
000003d0: d0ad f93c 475e c33d ddd1 26bd 4a7c ca3d
000003e0: 2275 b3bc 64bd 723d 43ff 7b3d 94c6 35bc
000003f0: dcb3 cabd 562f 65bd 84aa ccbd 57ef 2bbd

bias f4 [32]
-0.026133105 -0.049337547 -0.24807614 -0.03450221 0.18595913 0.080928855 -0.04264949 0.4377161
0.05195698 -0.10295596 -0.0067752297 -0.029008495 -0.03386922 -0.058273204 0.0786251 0.35867408
0.30652764 0.055999193 0.09181116 0.2624331 0.32623342 0.2594497 -0.07516707 0.020773394
0.038999166 0.16507596 0.054801643 0.00965234 -0.062332593 -0.13918316 -0.13903336 -0.06332332
00000000: 1815 d6bc 2b16 4abd ac07 7ebe 3052 0dbd
00000010: 126c 3e3e 07be a53d 3bb1 2ebd 531c e03e
00000020: d8d0 543d 93da d2bd bf02 debb 39a3 edbc
00000030: 74ba 0abd e2af 6ebd 3206 a13d 21a4 b73e
00000040: 31f1 9c3e 695f 653d 7d07 bc3d a25d 863e
00000050: 1108 a73e 97d6 843e 31f1 99bd f72c aa3c
00000060: 97bd 1f3d ac09 293e b077 603d d924 1e3c
00000070: 7650 7fbd 0886 0ebe c35e 0ebe a8af 81bd

weight f4 [5, 4608]
0.017545136 0.025216503 -0.005011635 -0.00016422816 0.013519912 0.0092923185 0.016370855 -0.023540413
0.0059846826 0.0054538934 0.028380074 0.04982122 0.03807095 0.008548578 0.0024290523 0.008934354
0.001754194 -0.014896779 0.0104271015 0.012273717 -0.012433592 -0.008019247 -0.0015369877 0.018060017
0.007573311 0.0060133147 0.0021774552 0.011170676 0.019042682 0.006497534 0.009111612 0.013003085
0.002939883 -0.0021923503 0.015930763 0.016045053 -0.0044527655 0.0010538386 -0.004744044 0.01082528
-0.0060783653 0.010926094 0.011455127 0.005391979 0.00035216083 0.008820448 0.016566617 0.016391633
-0.002007278 -0.0018373441 0.01081849 0.005590484 0.014991185 0.018360417 -0.00039015713 0.013842695
0.0038986104 0.006352554 0.020489184 0.01918314 -0.005378735 0.0017537092 -0.0025327238 0.011441249
0.0081695495 0.004003472 -0.005321966 0.0063356315 0.020837381 0.0007660533 0.010859135 0.009804032
0.0028493176 0.017610576 -0.0023921158 -0.0031551023 0.0021201465 -0.010351115 -0.0030949067 -0.004973955
0.018394673 -0.0010620313 0.006586499 0.002106942 -0.0067625768 0.011256292 0.00012022673 -0.008667338
-0.007926682 -0.0006415487 0.0069273366 0.013354993 -0.0025109823 -0.013006233 0.015602086 0.007507937
0.005645895 -0.016882977 -0.003235684 0.006372654 0.019279497 0.003147044 -0.0035998495 0.00014214148
0.0144908745 -0.0038405345 -0.0052322354 0.0061317827 0.017082777 -0.009071137 0.0085048815 0.024709648
0.014699858 0.020298226 -0.0021492855 0.016021483 -0.010433272 0.006868445 0.006654767 0.014909352
0.016160328 0.016161893 0.014000311 -0.0035394328 -0.0045550778 -0.014794388 0.00018937585 -0.01857866
-0.016973158 -0.004529437 -0.0029833268 -0.0077905194 -0.008032203 0.017185576 0.009207701 0.013751328
-0.0048566987 -0.00026172344 -0.027760943 -0.01214948 0.0050779236 -0.0014297371 -0.0029763076 0.011506379
0.061628208 0.017071445 -0.017755823 -0.016530875 -0.023198558 0.0035322323 -0.030590875 -0.057910215
-0.033556756 -0.022823842 -0.0057726097 0.015146117 0.015375519 0.007403697 0.023958432 -0.003930483
-0.011339079 -0.0065308707 -0.0406524 -0.052722402 -0.009140653 -0.017594233 0.0006042235 0.020088902
0.020595042 0.024465963 0.03163276 0.014422854 0.0010804468 -0.009681572 -0.05276853 -0.03831404
-0.023933263 -0.015391175 -0.0026588393 0.023765868 0.010409172 0.028801857 0.020837052 -0.008105736
-0.043429293 -0.048167255 -0.0673139 -0.007861718 -0.0051516835 -0.021518502 0.0024172326 0.02824104
0.02357538 0.010498979 0.02436473 0.0098206 -0.0032759476 -0.034776527 -0.031244675 -0.024736982
-0.015202402 -0.007809943 0.00016531372 0.015223271 0.025315803 0.014445788 -0.015400668 -0.005059935
-0.016554158 -0.0417392 -0.050300553 -0.04858858 -0.018896094 -0.0047875675 -0.022718776 0.03521977
0.03789833 0.0037333101 -0.00058719347 0.0013743651 0.00419525 -0.021819435 -0.025858179 -0.016105454
-0.011561848 -0.013118262 0.0074866605 0.045361027 0.034403186 0.011390715 0.0053753653 0.01307436
-0.0046626013 -0.011356511 -0.051620144 0.0025810038 0.01729305 -0.0053959438 0.027848978 0.0405815
0.025497844 0.020603977 0.006082156 -0.016666349 0.017351767 -0.0106687 -0.051210355 -0.017442232
0.005238042 0.007747603 0.00437558 0.010124269 0.013611419 0.007752008 -0.00016586501 0.021691557
00000000: d1ba 8f3c d792 ce3c a438 a4bb a934 2cb9
00000010: 9f82 5d3c cf3e 183c 2c1c 863c d3d7 c0bc
00000020: 281b c43b 93b6 b23b 547d e83c 5611 4c3d
00000030: 49f0 1b3d 560f 0c3c bc30 1f3b 6661 123c
00000040: fcec e53a 9f11 74bc 6fd6 2a3c b317 493c
00000050: 44b6 4bbc 2963 03bc c074 c9ba 9af2 933c
00000060: 8a29 f83b 570b c53b a3b3 0e3b 3605 373c
00000070: 66ff 9b3c 44e9 d43b df48 153c e40a 553c
00000080: 0dab 403b 89ad 0fbb 3b81 823c ea70 833c
00000090: 81e8 91bb f520 8a3a ed73 9bbb 845c 313c
000000a0: 062d c7bb 5c03 333c 49ae 3b3c 33af b03b
000000b0: 3aa2 b839 a483 103c b7b6 873c bf47 863c
000000c0: 898c 03bb 0ad3 f0ba 0940 313c 6130 b73b
000000d0: 969d 753c 9668 963c 018e ccb9 79cc 623c
000000e0: d47f 7f3b 1629 d03b efd8 a73c f625 9d3c
000000f0: 1940 b0bb b7dc e53a 0efc 25bb 1474 3b3c
00000100: 93d9 053c 8f2f 833b e363 aebb 219b cf3b
00000110: 28b3 aa3c f7d0 483a 83ea 313c 17a1 203c
00000120: 9ebb 3a3b 0e44 903c 0bc5 1cbb d5c5 4ebb
00000130: 28f2 0a3b b997 29bc ebd3 4abb 8ffc a2bb
00000140: 6db0 963c db33 8bba 8fd3 d73b 9f14 0a3b
00000150: 9b98 ddbb 506c 383c 3c22 fc38 7301 0ebc
00000160: eade 01bc 9b2d 28ba b6fe e23b e7ce 5a3c
00000170: 4b8f 24bb 1818 55bc e49f 7f3c 2405 f63b
00000180: 3301 b93b 2b4e 8abc c50d 54bb b2d1 d03b
00000190: 09f0 9d3c a33e 4e3b 74eb 6bbb d00b 1539
000001a0: 226b 6d3c 7ab1 7bbb 2c73 abbb 1fed c83b
000001b0: 2ef1 8b3c 1b9f 14bc 0f58 0b3c e36b ca3c
000001c0: acd7 703c 7748 a63c 07db 0cbb 7c3f 833c
000001d0: 51f0 2abc b110 e13b 3b10 da3b 5b46 743c
000001e0: aa62 843c f265 843c 8f61 653c d4f5 67bb
000001f0: c342 95bb 2964 72bc 3193 4639 4632 98bc
00000200: 4b0b 8bbc ac6b 94bb eb83 43bb 9d47 ffbb
00000210: 8099 03bc c4c8 8c3c e6db 163c 404d 613c
00000220: f124 9fbb ed37 89b9 eb6a e3bc 9d0e 47bc
00000230: b664 a63b 0466 bbba 280e 43bb 4085 3c3c
00000240: dc6d 7c3d 6ad9 8b3c a974 91bc c26b 87bc
00000250: e70a bebc 067d 673b b799 fabc 4333 6dbd
00000260: cf72 09bd 11f9 babc 2928 bdbb 6b27 783c
00000270: 9ae9 7b3c b69a f23b 7944 c43c 48cb 80bb
00000280: 8bc7 39bc ea00 d6bb 2283 26bd 72f3 57bd
00000290: adc2 15bc c821 90bc c164 1e3a 7b91 a43c
000002a0: efb6 a83c d86c c83c 5a91 013d d64d 6c3c
000002b0: c79d 8d3a 759f 1ebc d023 58bd 2fef 1cbd
000002c0: b10f c4bc 442b 7cbc ec3f 2ebb a3b0 c23c
000002d0: 3b8b 2a3c dff1 eb3c 77b2 aa3c eccd 04bc
000002e0: eae2 31bd 074b 45bd dfdb 89bd 6fce 00bc
000002f0: 74cf a8bb 9247 b0bc 6f6a 1e3b c159 e73c
00000300: 2821 c13c e903 2c3c 8b98 c73c 95e6 203c
00000310: 48b1 56bb d571 0ebd d5f4 ffbc 36a5 cabc
00000320: 7f13 79bc 8dea ffbb 1058 2d39 076b 793c
00000330: 1663 cf3c 07ae 6c3c 1553 7cbc d0cd a5bb
00000340: 969c 87bc b9f6 2abd f407 4ebd d204 47bd
00000350: fbcb 9abc 07e1 9cbb ba1c babc 9b42 103d
00000360: 473b 1b3d 8daa 743b e3ed 19ba 0a24 b43a
00000370: 4f78 893b acbe b2bc 88d4 d3bc 96ef 83bc
00000380: e86d 3dbc fbed 56bc a952 f53b 7ccc 393d
00000390: 5bea 0c3d 1fa0 3a3c d523 b03b d735 563c
000003a0: bcc8 98bb a910 3abc a56f 53bd 0f26 293b
000003b0: 28aa 8d3c 75d0 b0bb 8a23 e43c c938 263d
000003c0: dbe0 d03c acc9 a83c d34c c73b de87 88bc
000003d0: 4b25 8e3c c5cb 2ebc f3c1 51bd 03e3 8ebc
000003e0: e2a3 ab3b 9bdf fd3b 0761 8f3b 43e0 253c
000003f0: 6e02 5f3c 8e04 fe3b 0dec 2db9 7eb2 b13c

bias f4 [5]
0.15690863 -0.13918173 -0.04531296 0.068233594 -0.031531885
00000000: a8ac 203e a885 0ebe 159a 39bd 0ebe 8b3d
00000010: 9427 01bd
