src/hw5/SimpleCNN.pt (torch, 35087 bytes, 4 tensors)

weight f4 [8, 3, 3, 3]
0	0x3db92f96	0.090422794
1	0xbc44b3f2	-0.012005793
2	0x3d885493	0.06656756
3	0x3e4ba689	0.19887747
4	0x3d4d0f12	0.0500632
5	0x3e6d1a30	0.23154521
6	0x3e16c1a7	0.1472231
7	0x3e5b5e91	0.21422793
8	0x3e0267b0	0.12734866
9	0xbe1d46bf	-0.15359019
10	0x3b066152	0.0020504785
11	0xbc01aa0c	-0.0079140775
12	0x3b26f2f4	0.0025474401
13	0xbcc851fd	-0.024453158
14	0xbd929ec9	-0.07159192
15	0xbd359b34	-0.044337466
16	0xbd93ca02	-0.07216264
17	0xbdd44288	-0.10364252
18	0x3decc485	0.115609206
19	0x3d94e194	0.07269588
20	0xbd15603d	-0.036468733
21	0xbe07254b	-0.1319782
22	0x3d60c404	0.054874435
23	0xbdede65a	-0.11616202
24	0xbd8a6cf8	-0.067590654
25	0xbdaa818c	-0.0832549
26	0x3c0d04ad	0.008607072
27	0x3f11b03e	0.5690955
28	0x3dc6882d	0.09693942
29	0x3f110091	0.5664149
30	0x3e0321b4	0.12805825
31	0x3edae814	0.42755187
32	0x3de6ba74	0.11266032
33	0xbf1cc389	-0.6123586
34	0xbeea6470	-0.45779753
35	0xbf1c5ae1	-0.6107617
36	0x3ed5e668	0.4177735
37	0x3d3d6fcd	0.0462492
38	0x3ebc3dde	0.3676595
39	0xbe3edbe6	-0.18638572
40	0x3e87ddf1	0.26536515
41	0xbe69a38a	-0.22816291
42	0xbeb6f59c	-0.3573426
43	0xbeaa3da2	-0.33250147
44	0xbf277dfe	-0.65426624
45	0x3eb11fb2	0.34594494
46	0xbd0ec484	-0.03485538
47	0x3eb8e67c	0.36113346
48	0xbc10cce0	-0.0088379085
49	0x3e5749b2	0.21024206
50	0xbe23619c	-0.15955204
51	0xbe9c90a0	-0.3057909
52	0x3db01ec1	0.08599616
53	0xbe940318	-0.2890861
54	0x3ec7e673	0.39043006
55	0x3ccbcb9e	0.024877366
56	0x3d5d6bb4	0.05405779
57	0xbe792ce4	-0.2433353
58	0x3ef76214	0.48317015
59	0xbac63e1e	-0.0015124714
60	0xbf1ced38	-0.6129947
61	0x3f5e9150	0.8694048
62	0xbdef18a8	-0.11674625
63	0x3e90bec0	0.2827053
64	0xbea2d756	-0.31804913
65	0xbd573982	-0.052545078
66	0xbe73ea05	-0.2381974
67	0x3e9445d8	0.28959537
68	0xbe9d0b9a	-0.30672914
69	0xbf44b211	-0.7683421
70	0x3f34fe6f	0.70700735
71	0xbed05073	-0.40686378
72	0x3e84b613	0.25920162
73	0xbe2df514	-0.16988021
74	0x3d77d2d9	0.060503814
75	0xbdc9803b	-0.09838911
76	0x3ebed25f	0.37269875
77	0xbd0a2783	-0.033729088
78	0xbf2aff7e	-0.667961
79	0x3f49f908	0.78895617
80	0xbed688cb	-0.4190124
81	0xbcbb6097	-0.022873206
82	0xbe286b9f	-0.16447304
83	0xbe8ea308	-0.27858758
84	0x3ed35972	0.4127918
85	0xbe64e6a0	-0.22353601
86	0xbf05d1b6	-0.5227312
87	0x3f115067	0.5676331
88	0x3df0496a	0.117327526
89	0xbda40c40	-0.08010149
90	0x3e227d59	0.15868129
91	0xbeb4f778	-0.35345054
92	0xbe820822	-0.2539683
93	0x3e99dfee	0.30053657
94	0xbe8ef42f	-0.27920672
95	0xbefa397d	-0.48871985
96	0x3ed31869	0.4122956
97	0x3df196bc	0.117963284
98	0xbea6d115	-0.32581392
99	0x3de94278	0.11389631
100	0x3de19c91	0.11016191
101	0xbe150954	-0.1455434
102	0x3ec8cfe9	0.39221123
103	0x3d1ecc11	0.03876883
104	0xbeb5da3b	-0.3551806
105	0x3e295d02	0.16539386
106	0x3e9f2802	0.3108521
107	0xbe0724bb	-0.13197605
108	0x3e0e48e1	0.13894989
109	0x3d045fc0	0.032317877
110	0x3d42ab76	0.0475268
111	0x3e20321f	0.1564412
112	0x3e5c9a50	0.2154324
113	0xbe66b686	-0.22530565
114	0x3bc8d12e	0.006128452
115	0x3e8a65a5	0.27030674
116	0x3b8647ec	0.004097929
117	0x3e29ddf7	0.16588579
118	0xbdbeeecb	-0.0932289
119	0xbdaf5cd0	-0.085626245
120	0xbd8c26e8	-0.06843358
121	0x3dda98de	0.10673688
122	0x3e22f87d	0.15915103
123	0xbdc3df10	-0.0956403
124	0x3e911616	0.28337163
125	0xbe2dadff	-0.16960905
126	0xbe1fd59c	-0.1560883
127	0xbcfda4f8	-0.030962452
128	0x3e03cdd2	0.12871483
129	0x3e57a521	0.21059085
130	0xbd845f1c	-0.06463453
131	0xbc200b83	-0.00976837
132	0x3e479211	0.19489314
133	0x3e9ad6d2	0.3024202
134	0x3d83a278	0.06427473
135	0xbde067a9	-0.109572716
136	0x3d43c06e	0.047790937
137	0x3e2d36ca	0.16915432
138	0xbec5c7a7	-0.38628885
139	0xbe34208c	-0.1759054
140	0x3e0087ac	0.12551755
141	0xbe92a6df	-0.28642938
142	0xbdc99b27	-0.09844046
143	0x3e7363da	0.23768559
144	0xbe27dcc1	-0.16392805
145	0xbd78426f	-0.06061023
146	0x3e8d1062	0.27551562
147	0xbe339d26	-0.17540416
148	0x3e0ab9dd	0.13547464
149	0x3ed496cb	0.41521296
150	0xbe8b6051	-0.2722192
151	0x3e8e7f21	0.27831367
152	0x3e86babd	0.26314345
153	0xbece9b85	-0.40353027
154	0xbe9be0ac	-0.3044485
155	0x3d362df8	0.044477433
156	0xbef40f41	-0.47667888
157	0xbdf00f1d	-0.11721633
158	0x3ee0652b	0.43827185
159	0xbeaf3fc6	-0.34228343
160	0xbd7b30f5	-0.061325986
161	0x3ed1ad84	0.40952694
162	0xbe3dcff7	-0.18536364
163	0xbd22f388	-0.03978303
164	0xbebe4948	-0.37165284
165	0x3e81e020	0.25366306
166	0x3e387443	0.180131
167	0x3e384a6f	0.17997144
168	0xbe9b4c2b	-0.3033155
169	0xbe474011	-0.19458033
170	0xbe879e02	-0.26487738
171	0xbd4d5516	-0.050129972
172	0xbc222051	-0.0098954
173	0xbdeabc68	-0.11461717
174	0x3f02bbaa	0.510676
175	0x3f0c18c5	0.54725295
176	0x3eec898c	0.4619869
177	0xbd55ccbd	-0.052197207
178	0xbe1c30df	-0.15253018
179	0x3d085427	0.03328338
180	0xbe89e62b	-0.26933417
181	0xbe2268e4	-0.15860325
182	0xbeda3d8a	-0.42625076
183	0x3e2c07f0	0.16799903
184	0x3de6d52c	0.11271128
185	0x3ec153ae	0.37759155
186	0xbea53b1b	-0.32271656
187	0xbe8d3506	-0.27579516
188	0xbe7bf252	-0.24604157
189	0xbec41ac3	-0.38301668
190	0xbe281ce1	-0.16417266
191	0xbe97ba44	-0.29634297
192	0xbe88db26	-0.26729697
193	0xbe87fafd	-0.26558676
194	0xbc3a4bb8	-0.011370592
195	0xbe9529a9	-0.29133347
196	0xbdc1d944	-0.09465268
197	0xbdbc8288	-0.09204584
198	0x3df49a40	0.11943483
199	0xbe261806	-0.16220102
200	0x3d2e2e80	0.042524815
201	0xbdc339d9	-0.09532518
202	0x3ddeedaf	0.10885178
203	0x3bb864a4	0.0056272317
204	0x3e0521a9	0.13001122
205	0xbc22d946	-0.009939497
206	0xbd3a7763	-0.045524012
207	0x3dede244	0.11615422
208	0x3e370016	0.17871127
209	0x3e895013	0.26818904
210	0x3e914ade	0.28377432
211	0x3e45f577	0.19331919
212	0x3dc4cdd7	0.09609573
213	0x3ea30f9a	0.3184784
214	0x3e9a4657	0.3013179
215	0x3e8c99ff	0.2746124

bias f4 [8]
0	0x3f092a57	0.5358023
1	0xbe9051f4	-0.28187525
2	0x3d21430c	0.03937058
3	0xbe03b4f7	-0.12862001
4	0x3e23d111	0.15997721
5	0x3dfb0ae4	0.122579366
6	0xbcb39505	-0.021921644
7	0x3ec7f8f5	0.39057127

weight f4 [5, 1568]
0	0x3dbce954	0.09224191
1	0x3d5faa2b	0.054605644
2	0x3d5aa206	0.053377174
3	0x3d86fe71	0.065914996
4	0x3d8f7ed4	0.070066124
5	0x3daec377	0.08533376
6	0x3d738aa5	0.059458394
7	0x3cff5b90	0.03117159
8	0x3d88fc45	0.066887416
9	0x3d3a2aef	0.0454511
10	0x3d2dbe80	0.042418003
11	0x3d4b2cf8	0.049603432
12	0x3c850b39	0.016240703
13	0x3d5539dd	0.052057136
14	0x3d972aeb	0.07381233
15	0x3cf375d4	0.02971927
16	0x3caf9116	0.021431487
17	0x3cee6368	0.029100135
18	0x3d09a648	0.033605844
19	0x3c47f718	0.012204908
20	0x3bda2ec0	0.006658405
21	0x3c328054	0.010894854
22	0xbca3a054	-0.019973911
23	0x3a814873	0.000986351
24	0xbbeecb16	-0.0072873933
25	0x3d07a7f9	0.033119176
26	0x3d2f345c	0.042774543
27	0x3ceadb64	0.028669067
28	0x3d30079d	0.04297601
29	0x3d170a55	0.036875088
30	0x3ce4bb58	0.027921364
31	0x3c19cb5e	0.009386865
32	0x3d0505a6	0.03247609
33	0x3c93faab	0.018063864
34	0xbc8e1226	-0.017342638
35	0xbc8a6f3c	-0.016898744
36	0x3c6d9a6a	0.014502147
37	0x3cbd5cf2	0.023115609
38	0xbbfb254c	-0.0076643582
39	0x3d2639a7	0.040582325
40	0x3c8a98c9	0.016918557
41	0x3c259751	0.010106877
42	0x3d75a5a5	0.059972424
43	0x3c48f4c9	0.012265393
44	0x3d51296b	0.05106489
45	0x3c4c034b	0.012451957
46	0x3ccfd0ab	0.025368055
47	0x3c371401	0.011174203
48	0xbc8eedb8	-0.017447338
49	0xbc5410ba	-0.012943441
50	0xbcbaf806	-0.022823345
51	0xbce357d2	-0.027751837
52	0xbcf23996	-0.029568475
53	0x3b8b3751	0.0042485376
54	0x3bc6a180	0.006061733
55	0x3d04b968	0.03240338
56	0x3d587ad7	0.052851524
57	0x3d4f9b10	0.05068499
58	0x3d3b4d81	0.04572821
59	0x3cbc230f	0.022965936
60	0x3bd7a713	0.006581196
61	0xbcb843d4	-0.02249328
62	0xbd4aaaec	-0.04947941
63	0xbc847f06	-0.01617385
64	0xbcca006d	-0.024658406
65	0xbaea334f	-0.0017868074
66	0xbb5d2d93	-0.0033749088
67	0xbcb907f7	-0.022586806
68	0x3cac7de1	0.021056117
69	0x3d2ba813	0.041908335
70	0x3d839d46	0.06426482
71	0x3d236b4c	0.03989725
72	0x3c9c80de	0.019104417
73	0x3bcf2eec	0.006322732
74	0xbc1b7ef4	-0.009490717
75	0xbd07c654	-0.033148125
76	0xbd32ee6e	-0.043684416
77	0xbd57a16f	-0.05264419
78	0xbc9a2c94	-0.018820085
79	0xbca12537	-0.019671066
80	0xbc37e7ca	-0.011224696
81	0xbc5f4ec5	-0.01362962
82	0xbc8c5e08	-0.017134681
83	0x3d1358b1	0.035973255
84	0x3d814079	0.06311125
85	0x3d8ef826	0.06980924
86	0x3cad5264	0.021157451
87	0xba6f271c	-0.0009122954
88	0xbd05bcda	-0.032650806
89	0xbd29d208	-0.041460067
90	0xbd04397c	-0.032281384
91	0xbd8e8822	-0.06959559
92	0xbd1d0546	-0.038335107
93	0xbc687039	-0.014186912
94	0xbb9e0f67	-0.0048236134
95	0xbbf88667	-0.0075843814
96	0xbba1d029	-0.0049381447
97	0x3b929659	0.0044734892
98	0x3d13c3c9	0.036075387
99	0x3c9b3883	0.018947845
100	0x3cc107ec	0.023563348
101	0xbc92c568	-0.017916396
102	0xbc9c1cc2	-0.019056682
103	0xbc17bd3a	-0.009261424
104	0xbd521782	-0.05129195
105	0xbd1c26c4	-0.038122907
106	0xbca74260	-0.020417392
107	0xbc1c950a	-0.009557018
108	0x3c190669	0.009339907
109	0xbd040283	-0.032228958
110	0xbc6fd7e7	-0.0146388775
111	0xbbed7b9b	-0.007247401
112	0x3b60f36f	0.0034324785
113	0x3b799c55	0.0038087566
114	0x3c51cf81	0.01280582
115	0xbc70dae4	-0.014700625
116	0xbcfe1e6a	-0.031020362
117	0xbd0cad92	-0.034345217
118	0xbd3c1354	-0.04591687
119	0xbcc6b9b7	-0.024258478
120	0xbd3ea05c	-0.04653965
121	0xbd1eeec9	-0.038801942
122	0xbcaf2e57	-0.021384401
123	0xbc4ae4f1	-0.012383685
124	0xbd12fe38	-0.035886973
125	0xbca6574e	-0.020305302
126	0x3cf2c6bb	0.029635778
127	0x3cb00491	0.021486552
128	0x3b087e98	0.002082741
129	0xbbe14ffe	-0.006875991
130	0x3c901f8e	0.017593171
131	0x3c575463	0.013142678
132	0x3c20a8e8	0.009805895
133	0xbd121629	-0.035665665
134	0xbcd36d7d	-0.025809044
135	0xbd094a90	-0.033518374
136	0xbce0cf5b	-0.027442625
137	0xbce09cb9	-0.027418481
138	0x3c159684	0.009130124
139	0x3a3a7f67	0.00071143213
140	0x3c228ea4	0.0099217035
141	0x3c55705f	0.01302728
142	0x3ad27e85	0.0016059434
143	0x3b0237fb	0.0019869793
144	0x3c8af3c2	0.016961936
145	0xba3c327a	-0.00071791525
146	0xbd0a3fe5	-0.03375234
147	0xbcc62e65	-0.024192045
148	0xbc674d8a	-0.014117608
149	0xbc8b8a44	-0.017033704
150	0x3b13ff4b	0.0022582586
151	0x3af8800d	0.001895906
152	0xbb8ace6d	-0.0042360337
153	0x3cd7209e	0.02626067
154	0xbbd00016	-0.0063476665
155	0x3cae823d	0.021302337
156	0x3cc5c385	0.024141083
157	0xbc223afb	-0.009901757
158	0x3cb54f41	0.022132518
159	0xba30bdc6	-0.00067421456
160	0xbc8a61f4	-0.01689241
161	0x3abe7c77	0.0014532943
162	0x3c74e96a	0.014948228
163	0x3c56961d	0.013097313
164	0xbc2fc8a6	-0.010728991
165	0xbbd85a23	-0.006602542
166	0x3bb05424	0.005381124
167	0x3c06a9b7	0.008219174
168	0xbc1bc618	-0.009507678
169	0xbb03a1aa	-0.0020085373
170	0x3d43b6e6	0.047781847
171	0x3c6496df	0.013951986
172	0x3ce5fe0e	0.028075244
173	0x3c885472	0.01664183
174	0x3cc4b0ef	0.02401015
175	0x3b936549	0.004498158
176	0xbb9440c8	-0.004524324
177	0x3d231075	0.039810617
178	0x3b796ae2	0.0038058092
179	0xbca2203c	-0.019790761
180	0xbc0002ab	-0.007813136
181	0xbd069b49	-0.032862935
182	0xbc6a7d8d	-0.01431216
183	0x3b0c63f3	0.002142188
184	0x3d4ef6e8	0.050528437
185	0x3ce8ce11	0.028418573
186	0x3cf14262	0.0294506
187	0x3d0aff7a	0.033935048
188	0x3ce5fbe5	0.028074214
189	0xbc829701	-0.015941145
190	0x3cac7814	0.021053351
191	0x3cffde6d	0.03123399
192	0xbad5595c	-0.0016277242
193	0x3d2ad3e0	0.041705966
194	0x3b9962ea	0.004680981
195	0xbbf34b0c	-0.007424718
196	0x3d8a92a4	0.06766251
197	0x3d6965d7	0.056981888
198	0xbbb6f04f	-0.0055828462
199	0xbd0aa420	-0.033847928
200	0xbd1508ec	-0.03638546
201	0xbd69b938	-0.057061404
202	0xbdc27297	-0.094945125
203	0xbd323074	-0.04350324
204	0xbcd24a79	-0.025670277
205	0xbc2a2632	-0.010385083
206	0x3c9fb343	0.019494658
207	0x3c69ead9	0.014277183
208	0x3d6d971a	0.05800543
209	0x3d2cfb45	0.042231817
210	0x3dcb704e	0.0993353
211	0x3ca97390	0.020684987
212	0xbca0ef11	-0.019645246
213	0xbd95373f	-0.07285928
214	0xbd8100f4	-0.0629901
215	0xbd2abb13	-0.041682314
216	0xbd9b4df2	-0.07583226
217	0xbd6c2fee	-0.057662897
218	0xbe07addb	-0.13249914
219	0xbc47227b	-0.012154217
220	0xbcd9734e	-0.02654424
221	0xbcb0c7bf	-0.021579621
222	0xbca34677	-0.019931061
223	0x3c983f74	0.018584944
224	0x3bf85768	0.007578779
225	0x3b541386	0.003236027
226	0x3cb07051	0.021537932
227	0xbcac91d6	-0.021065634
228	0xbd9df299	-0.077122875
229	0xbe0891af	-0.13336824
230	0xbd878cb0	-0.06618631
231	0xbe07e5a9	-0.13271202
232	0xbe0dcd34	-0.1384781
233	0xbdbcccb6	-0.09218733
234	0xbd2309ee	-0.03980439
235	0xbd3deb0c	-0.046366736
236	0x3cbd989f	0.023144064
237	0x3d0cb83e	0.034355395
238	0x3d25689c	0.040382966
239	0x3ce01555	0.027353922
240	0x3cbfc3c7	0.023408784
241	0xbbf812d9	-0.007570606
242	0xbd5d5b08	-0.054041892
243	0xbdd5c3be	-0.104377255
244	0xbdeba29b	-0.11505624
245	0xbe12acd7	-0.14323746
246	0xbe32f038	-0.17474449
247	0xbdc2a80c	-0.09504709
248	0x3c271b4f	0.010199382
249	0x3d1f2c35	0.03886052
250	0x3ce26463	0.027635759
251	0x3daa4c90	0.083153844
252	0x3c663ea0	0.014053017
253	0xbbef65cc	-0.0073058363
254	0x3c033fd0	0.00801082
255	0xbd7c1165	-0.061540026

bias f4 [5]
0	0x3d295d2a	0.041348614
1	0xbe9a63bb	-0.30154213
2	0xbdbbf75e	-0.09178041
3	0x3e0b7ffd	0.13623042
4	0x3e2225e2	0.15834764
